Layer (type)                    Output Shape         Param #     Connected to                     
==================================================================================================
input_2 (InputLayer)            [(None, 500, 500, 1) 0                                            
__________________________________________________________________________________________________
batch_normalization_177 (BatchN (None, 500, 500, 1)  4           input_2[0][0]                    
__________________________________________________________________________________________________
re_lu_177 (ReLU)                (None, 500, 500, 1)  0           batch_normalization_177[0][0]    
__________________________________________________________________________________________________
conv2d_179 (Conv2D)             (None, 500, 500, 4)  40          re_lu_177[0][0]                  
__________________________________________________________________________________________________
dropout_177 (Dropout)           (None, 500, 500, 4)  0           conv2d_179[0][0]                 
__________________________________________________________________________________________________
concatenate_252 (Concatenate)   (None, 500, 500, 5)  0           dropout_177[0][0]                
                                                                 input_2[0][0]                    
__________________________________________________________________________________________________
batch_normalization_178 (BatchN (None, 500, 500, 5)  20          concatenate_252[0][0]            
__________________________________________________________________________________________________
re_lu_178 (ReLU)                (None, 500, 500, 5)  0           batch_normalization_178[0][0]    
__________________________________________________________________________________________________
conv2d_180 (Conv2D)             (None, 500, 500, 4)  184         re_lu_178[0][0]                  
__________________________________________________________________________________________________
dropout_178 (Dropout)           (None, 500, 500, 4)  0           conv2d_180[0][0]                 
__________________________________________________________________________________________________
concatenate_253 (Concatenate)   (None, 500, 500, 9)  0           dropout_178[0][0]                
                                                                 concatenate_252[0][0]            
__________________________________________________________________________________________________
batch_normalization_179 (BatchN (None, 500, 500, 9)  36          concatenate_253[0][0]            
__________________________________________________________________________________________________
re_lu_179 (ReLU)                (None, 500, 500, 9)  0           batch_normalization_179[0][0]    
__________________________________________________________________________________________________
conv2d_181 (Conv2D)             (None, 500, 500, 4)  328         re_lu_179[0][0]                  
__________________________________________________________________________________________________
dropout_179 (Dropout)           (None, 500, 500, 4)  0           conv2d_181[0][0]                 
__________________________________________________________________________________________________
concatenate_255 (Concatenate)   (None, 500, 500, 12) 0           dropout_177[0][0]                
                                                                 dropout_178[0][0]                
                                                                 dropout_179[0][0]                
__________________________________________________________________________________________________
concatenate_256 (Concatenate)   (None, 500, 500, 13) 0           concatenate_255[0][0]            
                                                                 input_2[0][0]                    
__________________________________________________________________________________________________
batch_normalization_180 (BatchN (None, 500, 500, 13) 52          concatenate_256[0][0]            
__________________________________________________________________________________________________
re_lu_180 (ReLU)                (None, 500, 500, 13) 0           batch_normalization_180[0][0]    
__________________________________________________________________________________________________
conv2d_182 (Conv2D)             (None, 500, 500, 13) 182         re_lu_180[0][0]                  
__________________________________________________________________________________________________
dropout_180 (Dropout)           (None, 500, 500, 13) 0           conv2d_182[0][0]                 
__________________________________________________________________________________________________
max_pooling2d_1 (MaxPooling2D)  multiple             0           dropout_180[0][0]                
                                                                 dropout_184[0][0]                
                                                                 dropout_188[0][0]                
                                                                 dropout_192[0][0]                
                                                                 dropout_196[0][0]                
                                                                 dropout_200[0][0]                
                                                                 dropout_204[0][0]                
                                                                 dropout_208[0][0]                
__________________________________________________________________________________________________
batch_normalization_181 (BatchN (None, 250, 250, 13) 52          max_pooling2d_1[8][0]            
__________________________________________________________________________________________________
re_lu_181 (ReLU)                (None, 250, 250, 13) 0           batch_normalization_181[0][0]    
__________________________________________________________________________________________________
conv2d_183 (Conv2D)             (None, 250, 250, 8)  944         re_lu_181[0][0]                  
__________________________________________________________________________________________________
dropout_181 (Dropout)           (None, 250, 250, 8)  0           conv2d_183[0][0]                 
__________________________________________________________________________________________________
concatenate_257 (Concatenate)   (None, 250, 250, 21) 0           dropout_181[0][0]                
                                                                 max_pooling2d_1[8][0]            
__________________________________________________________________________________________________
batch_normalization_182 (BatchN (None, 250, 250, 21) 84          concatenate_257[0][0]            
__________________________________________________________________________________________________
re_lu_182 (ReLU)                (None, 250, 250, 21) 0           batch_normalization_182[0][0]    
__________________________________________________________________________________________________
conv2d_184 (Conv2D)             (None, 250, 250, 8)  1520        re_lu_182[0][0]                  
__________________________________________________________________________________________________
dropout_182 (Dropout)           (None, 250, 250, 8)  0           conv2d_184[0][0]                 
__________________________________________________________________________________________________
concatenate_258 (Concatenate)   (None, 250, 250, 29) 0           dropout_182[0][0]                
                                                                 concatenate_257[0][0]            
__________________________________________________________________________________________________
batch_normalization_183 (BatchN (None, 250, 250, 29) 116         concatenate_258[0][0]            
__________________________________________________________________________________________________
re_lu_183 (ReLU)                (None, 250, 250, 29) 0           batch_normalization_183[0][0]    
__________________________________________________________________________________________________
conv2d_185 (Conv2D)             (None, 250, 250, 8)  2096        re_lu_183[0][0]                  
__________________________________________________________________________________________________
dropout_183 (Dropout)           (None, 250, 250, 8)  0           conv2d_185[0][0]                 
__________________________________________________________________________________________________
concatenate_260 (Concatenate)   (None, 250, 250, 24) 0           dropout_181[0][0]                
                                                                 dropout_182[0][0]                
                                                                 dropout_183[0][0]                
__________________________________________________________________________________________________
concatenate_261 (Concatenate)   (None, 250, 250, 37) 0           concatenate_260[0][0]            
                                                                 max_pooling2d_1[8][0]            
__________________________________________________________________________________________________
batch_normalization_184 (BatchN (None, 250, 250, 37) 148         concatenate_261[0][0]            
__________________________________________________________________________________________________
re_lu_184 (ReLU)                (None, 250, 250, 37) 0           batch_normalization_184[0][0]    
__________________________________________________________________________________________________
conv2d_186 (Conv2D)             (None, 250, 250, 37) 1406        re_lu_184[0][0]                  
__________________________________________________________________________________________________
dropout_184 (Dropout)           (None, 250, 250, 37) 0           conv2d_186[0][0]                 
__________________________________________________________________________________________________
batch_normalization_185 (BatchN (None, 125, 125, 37) 148         max_pooling2d_1[9][0]            
__________________________________________________________________________________________________
re_lu_185 (ReLU)                (None, 125, 125, 37) 0           batch_normalization_185[0][0]    
__________________________________________________________________________________________________
conv2d_187 (Conv2D)             (None, 125, 125, 16) 5344        re_lu_185[0][0]                  
__________________________________________________________________________________________________
dropout_185 (Dropout)           (None, 125, 125, 16) 0           conv2d_187[0][0]                 
__________________________________________________________________________________________________
concatenate_262 (Concatenate)   (None, 125, 125, 53) 0           dropout_185[0][0]                
                                                                 max_pooling2d_1[9][0]            
__________________________________________________________________________________________________
batch_normalization_186 (BatchN (None, 125, 125, 53) 212         concatenate_262[0][0]            
__________________________________________________________________________________________________
re_lu_186 (ReLU)                (None, 125, 125, 53) 0           batch_normalization_186[0][0]    
__________________________________________________________________________________________________
conv2d_188 (Conv2D)             (None, 125, 125, 16) 7648        re_lu_186[0][0]                  
__________________________________________________________________________________________________
dropout_186 (Dropout)           (None, 125, 125, 16) 0           conv2d_188[0][0]                 
__________________________________________________________________________________________________
concatenate_263 (Concatenate)   (None, 125, 125, 69) 0           dropout_186[0][0]                
                                                                 concatenate_262[0][0]            
__________________________________________________________________________________________________
batch_normalization_187 (BatchN (None, 125, 125, 69) 276         concatenate_263[0][0]            
__________________________________________________________________________________________________
re_lu_187 (ReLU)                (None, 125, 125, 69) 0           batch_normalization_187[0][0]    
__________________________________________________________________________________________________
conv2d_189 (Conv2D)             (None, 125, 125, 16) 9952        re_lu_187[0][0]                  
__________________________________________________________________________________________________
dropout_187 (Dropout)           (None, 125, 125, 16) 0           conv2d_189[0][0]                 
__________________________________________________________________________________________________
concatenate_265 (Concatenate)   (None, 125, 125, 48) 0           dropout_185[0][0]                
                                                                 dropout_186[0][0]                
                                                                 dropout_187[0][0]                
__________________________________________________________________________________________________
concatenate_266 (Concatenate)   (None, 125, 125, 85) 0           concatenate_265[0][0]            
                                                                 max_pooling2d_1[9][0]            
__________________________________________________________________________________________________
batch_normalization_188 (BatchN (None, 125, 125, 85) 340         concatenate_266[0][0]            
__________________________________________________________________________________________________
re_lu_188 (ReLU)                (None, 125, 125, 85) 0           batch_normalization_188[0][0]    
__________________________________________________________________________________________________
conv2d_190 (Conv2D)             (None, 125, 125, 85) 7310        re_lu_188[0][0]                  
__________________________________________________________________________________________________
dropout_188 (Dropout)           (None, 125, 125, 85) 0           conv2d_190[0][0]                 
__________________________________________________________________________________________________
batch_normalization_189 (BatchN (None, 62, 62, 85)   340         max_pooling2d_1[10][0]           
__________________________________________________________________________________________________
re_lu_189 (ReLU)                (None, 62, 62, 85)   0           batch_normalization_189[0][0]    
__________________________________________________________________________________________________
conv2d_191 (Conv2D)             (None, 62, 62, 32)   24512       re_lu_189[0][0]                  
__________________________________________________________________________________________________
dropout_189 (Dropout)           (None, 62, 62, 32)   0           conv2d_191[0][0]                 
__________________________________________________________________________________________________
concatenate_267 (Concatenate)   (None, 62, 62, 117)  0           dropout_189[0][0]                
                                                                 max_pooling2d_1[10][0]           
__________________________________________________________________________________________________
batch_normalization_190 (BatchN (None, 62, 62, 117)  468         concatenate_267[0][0]            
__________________________________________________________________________________________________
re_lu_190 (ReLU)                (None, 62, 62, 117)  0           batch_normalization_190[0][0]    
__________________________________________________________________________________________________
conv2d_192 (Conv2D)             (None, 62, 62, 32)   33728       re_lu_190[0][0]                  
__________________________________________________________________________________________________
dropout_190 (Dropout)           (None, 62, 62, 32)   0           conv2d_192[0][0]                 
__________________________________________________________________________________________________
concatenate_268 (Concatenate)   (None, 62, 62, 149)  0           dropout_190[0][0]                
                                                                 concatenate_267[0][0]            
__________________________________________________________________________________________________
batch_normalization_191 (BatchN (None, 62, 62, 149)  596         concatenate_268[0][0]            
__________________________________________________________________________________________________
re_lu_191 (ReLU)                (None, 62, 62, 149)  0           batch_normalization_191[0][0]    
__________________________________________________________________________________________________
conv2d_193 (Conv2D)             (None, 62, 62, 32)   42944       re_lu_191[0][0]                  
__________________________________________________________________________________________________
dropout_191 (Dropout)           (None, 62, 62, 32)   0           conv2d_193[0][0]                 
__________________________________________________________________________________________________
concatenate_270 (Concatenate)   (None, 62, 62, 96)   0           dropout_189[0][0]                
                                                                 dropout_190[0][0]                
                                                                 dropout_191[0][0]                
__________________________________________________________________________________________________
concatenate_271 (Concatenate)   (None, 62, 62, 181)  0           concatenate_270[0][0]            
                                                                 max_pooling2d_1[10][0]           
__________________________________________________________________________________________________
batch_normalization_192 (BatchN (None, 62, 62, 181)  724         concatenate_271[0][0]            
__________________________________________________________________________________________________
re_lu_192 (ReLU)                (None, 62, 62, 181)  0           batch_normalization_192[0][0]    
__________________________________________________________________________________________________
conv2d_194 (Conv2D)             (None, 62, 62, 181)  32942       re_lu_192[0][0]                  
__________________________________________________________________________________________________
dropout_192 (Dropout)           (None, 62, 62, 181)  0           conv2d_194[0][0]                 
__________________________________________________________________________________________________
batch_normalization_193 (BatchN (None, 31, 31, 181)  724         max_pooling2d_1[11][0]           
__________________________________________________________________________________________________
re_lu_193 (ReLU)                (None, 31, 31, 181)  0           batch_normalization_193[0][0]    
__________________________________________________________________________________________________
conv2d_195 (Conv2D)             (None, 31, 31, 64)   104320      re_lu_193[0][0]                  
__________________________________________________________________________________________________
dropout_193 (Dropout)           (None, 31, 31, 64)   0           conv2d_195[0][0]                 
__________________________________________________________________________________________________
concatenate_272 (Concatenate)   (None, 31, 31, 245)  0           dropout_193[0][0]                
                                                                 max_pooling2d_1[11][0]           
__________________________________________________________________________________________________
batch_normalization_194 (BatchN (None, 31, 31, 245)  980         concatenate_272[0][0]            
__________________________________________________________________________________________________
re_lu_194 (ReLU)                (None, 31, 31, 245)  0           batch_normalization_194[0][0]    
__________________________________________________________________________________________________
conv2d_196 (Conv2D)             (None, 31, 31, 64)   141184      re_lu_194[0][0]                  
__________________________________________________________________________________________________
dropout_194 (Dropout)           (None, 31, 31, 64)   0           conv2d_196[0][0]                 
__________________________________________________________________________________________________
concatenate_273 (Concatenate)   (None, 31, 31, 309)  0           dropout_194[0][0]                
                                                                 concatenate_272[0][0]            
__________________________________________________________________________________________________
batch_normalization_195 (BatchN (None, 31, 31, 309)  1236        concatenate_273[0][0]            
__________________________________________________________________________________________________
re_lu_195 (ReLU)                (None, 31, 31, 309)  0           batch_normalization_195[0][0]    
__________________________________________________________________________________________________
conv2d_197 (Conv2D)             (None, 31, 31, 64)   178048      re_lu_195[0][0]                  
__________________________________________________________________________________________________
dropout_195 (Dropout)           (None, 31, 31, 64)   0           conv2d_197[0][0]                 
__________________________________________________________________________________________________
concatenate_275 (Concatenate)   (None, 31, 31, 192)  0           dropout_193[0][0]                
                                                                 dropout_194[0][0]                
                                                                 dropout_195[0][0]                
__________________________________________________________________________________________________
concatenate_276 (Concatenate)   (None, 31, 31, 373)  0           concatenate_275[0][0]            
                                                                 max_pooling2d_1[11][0]           
__________________________________________________________________________________________________
batch_normalization_196 (BatchN (None, 31, 31, 373)  1492        concatenate_276[0][0]            
__________________________________________________________________________________________________
re_lu_196 (ReLU)                (None, 31, 31, 373)  0           batch_normalization_196[0][0]    
__________________________________________________________________________________________________
conv2d_198 (Conv2D)             (None, 31, 31, 373)  139502      re_lu_196[0][0]                  
__________________________________________________________________________________________________
dropout_196 (Dropout)           (None, 31, 31, 373)  0           conv2d_198[0][0]                 
__________________________________________________________________________________________________
batch_normalization_197 (BatchN (None, 15, 15, 373)  1492        max_pooling2d_1[12][0]           
__________________________________________________________________________________________________
re_lu_197 (ReLU)                (None, 15, 15, 373)  0           batch_normalization_197[0][0]    
__________________________________________________________________________________________________
conv2d_199 (Conv2D)             (None, 15, 15, 128)  429824      re_lu_197[0][0]                  
__________________________________________________________________________________________________
dropout_197 (Dropout)           (None, 15, 15, 128)  0           conv2d_199[0][0]                 
__________________________________________________________________________________________________
concatenate_277 (Concatenate)   (None, 15, 15, 501)  0           dropout_197[0][0]                
                                                                 max_pooling2d_1[12][0]           
__________________________________________________________________________________________________
batch_normalization_198 (BatchN (None, 15, 15, 501)  2004        concatenate_277[0][0]            
__________________________________________________________________________________________________
re_lu_198 (ReLU)                (None, 15, 15, 501)  0           batch_normalization_198[0][0]    
__________________________________________________________________________________________________
conv2d_200 (Conv2D)             (None, 15, 15, 128)  577280      re_lu_198[0][0]                  
__________________________________________________________________________________________________
dropout_198 (Dropout)           (None, 15, 15, 128)  0           conv2d_200[0][0]                 
__________________________________________________________________________________________________
concatenate_278 (Concatenate)   (None, 15, 15, 629)  0           dropout_198[0][0]                
                                                                 concatenate_277[0][0]            
__________________________________________________________________________________________________
batch_normalization_199 (BatchN (None, 15, 15, 629)  2516        concatenate_278[0][0]            
__________________________________________________________________________________________________
re_lu_199 (ReLU)                (None, 15, 15, 629)  0           batch_normalization_199[0][0]    
__________________________________________________________________________________________________
conv2d_201 (Conv2D)             (None, 15, 15, 128)  724736      re_lu_199[0][0]                  
__________________________________________________________________________________________________
dropout_199 (Dropout)           (None, 15, 15, 128)  0           conv2d_201[0][0]                 
__________________________________________________________________________________________________
concatenate_280 (Concatenate)   (None, 15, 15, 384)  0           dropout_197[0][0]                
                                                                 dropout_198[0][0]                
                                                                 dropout_199[0][0]                
__________________________________________________________________________________________________
concatenate_281 (Concatenate)   (None, 15, 15, 757)  0           concatenate_280[0][0]            
                                                                 max_pooling2d_1[12][0]           
__________________________________________________________________________________________________
batch_normalization_200 (BatchN (None, 15, 15, 757)  3028        concatenate_281[0][0]            
__________________________________________________________________________________________________
re_lu_200 (ReLU)                (None, 15, 15, 757)  0           batch_normalization_200[0][0]    
__________________________________________________________________________________________________
conv2d_202 (Conv2D)             (None, 15, 15, 757)  573806      re_lu_200[0][0]                  
__________________________________________________________________________________________________
dropout_200 (Dropout)           (None, 15, 15, 757)  0           conv2d_202[0][0]                 
__________________________________________________________________________________________________
batch_normalization_201 (BatchN (None, 7, 7, 757)    3028        max_pooling2d_1[13][0]           
__________________________________________________________________________________________________
re_lu_201 (ReLU)                (None, 7, 7, 757)    0           batch_normalization_201[0][0]    
__________________________________________________________________________________________________
conv2d_203 (Conv2D)             (None, 7, 7, 256)    1744384     re_lu_201[0][0]                  
__________________________________________________________________________________________________
dropout_201 (Dropout)           (None, 7, 7, 256)    0           conv2d_203[0][0]                 
__________________________________________________________________________________________________
concatenate_282 (Concatenate)   (None, 7, 7, 1013)   0           dropout_201[0][0]                
                                                                 max_pooling2d_1[13][0]           
__________________________________________________________________________________________________
batch_normalization_202 (BatchN (None, 7, 7, 1013)   4052        concatenate_282[0][0]            
__________________________________________________________________________________________________
re_lu_202 (ReLU)                (None, 7, 7, 1013)   0           batch_normalization_202[0][0]    
__________________________________________________________________________________________________
conv2d_204 (Conv2D)             (None, 7, 7, 256)    2334208     re_lu_202[0][0]                  
__________________________________________________________________________________________________
dropout_202 (Dropout)           (None, 7, 7, 256)    0           conv2d_204[0][0]                 
__________________________________________________________________________________________________
concatenate_283 (Concatenate)   (None, 7, 7, 1269)   0           dropout_202[0][0]                
                                                                 concatenate_282[0][0]            
__________________________________________________________________________________________________
batch_normalization_203 (BatchN (None, 7, 7, 1269)   5076        concatenate_283[0][0]            
__________________________________________________________________________________________________
re_lu_203 (ReLU)                (None, 7, 7, 1269)   0           batch_normalization_203[0][0]    
__________________________________________________________________________________________________
conv2d_205 (Conv2D)             (None, 7, 7, 256)    2924032     re_lu_203[0][0]                  
__________________________________________________________________________________________________
dropout_203 (Dropout)           (None, 7, 7, 256)    0           conv2d_205[0][0]                 
__________________________________________________________________________________________________
concatenate_285 (Concatenate)   (None, 7, 7, 768)    0           dropout_201[0][0]                
                                                                 dropout_202[0][0]                
                                                                 dropout_203[0][0]                
__________________________________________________________________________________________________
concatenate_286 (Concatenate)   (None, 7, 7, 1525)   0           concatenate_285[0][0]            
                                                                 max_pooling2d_1[13][0]           
__________________________________________________________________________________________________
batch_normalization_204 (BatchN (None, 7, 7, 1525)   6100        concatenate_286[0][0]            
__________________________________________________________________________________________________
re_lu_204 (ReLU)                (None, 7, 7, 1525)   0           batch_normalization_204[0][0]    
__________________________________________________________________________________________________
conv2d_206 (Conv2D)             (None, 7, 7, 1525)   2327150     re_lu_204[0][0]                  
__________________________________________________________________________________________________
dropout_204 (Dropout)           (None, 7, 7, 1525)   0           conv2d_206[0][0]                 
__________________________________________________________________________________________________
batch_normalization_205 (BatchN (None, 3, 3, 1525)   6100        max_pooling2d_1[14][0]           
__________________________________________________________________________________________________
re_lu_205 (ReLU)                (None, 3, 3, 1525)   0           batch_normalization_205[0][0]    
__________________________________________________________________________________________________
conv2d_207 (Conv2D)             (None, 3, 3, 512)    7027712     re_lu_205[0][0]                  
__________________________________________________________________________________________________
dropout_205 (Dropout)           (None, 3, 3, 512)    0           conv2d_207[0][0]                 
__________________________________________________________________________________________________
concatenate_287 (Concatenate)   (None, 3, 3, 2037)   0           dropout_205[0][0]                
                                                                 max_pooling2d_1[14][0]           
__________________________________________________________________________________________________
batch_normalization_206 (BatchN (None, 3, 3, 2037)   8148        concatenate_287[0][0]            
__________________________________________________________________________________________________
re_lu_206 (ReLU)                (None, 3, 3, 2037)   0           batch_normalization_206[0][0]    
__________________________________________________________________________________________________
conv2d_208 (Conv2D)             (None, 3, 3, 512)    9387008     re_lu_206[0][0]                  
__________________________________________________________________________________________________
dropout_206 (Dropout)           (None, 3, 3, 512)    0           conv2d_208[0][0]                 
__________________________________________________________________________________________________
concatenate_288 (Concatenate)   (None, 3, 3, 2549)   0           dropout_206[0][0]                
                                                                 concatenate_287[0][0]            
__________________________________________________________________________________________________
batch_normalization_207 (BatchN (None, 3, 3, 2549)   10196       concatenate_288[0][0]            
__________________________________________________________________________________________________
re_lu_207 (ReLU)                (None, 3, 3, 2549)   0           batch_normalization_207[0][0]    
__________________________________________________________________________________________________
conv2d_209 (Conv2D)             (None, 3, 3, 512)    11746304    re_lu_207[0][0]                  
__________________________________________________________________________________________________
dropout_207 (Dropout)           (None, 3, 3, 512)    0           conv2d_209[0][0]                 
__________________________________________________________________________________________________
concatenate_290 (Concatenate)   (None, 3, 3, 1536)   0           dropout_205[0][0]                
                                                                 dropout_206[0][0]                
                                                                 dropout_207[0][0]                
__________________________________________________________________________________________________
concatenate_291 (Concatenate)   (None, 3, 3, 3061)   0           concatenate_290[0][0]            
                                                                 max_pooling2d_1[14][0]           
__________________________________________________________________________________________________
batch_normalization_208 (BatchN (None, 3, 3, 3061)   12244       concatenate_291[0][0]            
__________________________________________________________________________________________________
re_lu_208 (ReLU)                (None, 3, 3, 3061)   0           batch_normalization_208[0][0]    
__________________________________________________________________________________________________
conv2d_210 (Conv2D)             (None, 3, 3, 3061)   9372782     re_lu_208[0][0]                  
__________________________________________________________________________________________________
dropout_208 (Dropout)           (None, 3, 3, 3061)   0           conv2d_210[0][0]                 
__________________________________________________________________________________________________
batch_normalization_209 (BatchN (None, 1, 1, 3061)   12244       max_pooling2d_1[15][0]           
__________________________________________________________________________________________________
re_lu_209 (ReLU)                (None, 1, 1, 3061)   0           batch_normalization_209[0][0]    
__________________________________________________________________________________________________
conv2d_211 (Conv2D)             (None, 1, 1, 1024)   28211200    re_lu_209[0][0]                  
__________________________________________________________________________________________________
dropout_209 (Dropout)           (None, 1, 1, 1024)   0           conv2d_211[0][0]                 
__________________________________________________________________________________________________
concatenate_292 (Concatenate)   (None, 1, 1, 4085)   0           dropout_209[0][0]                
                                                                 max_pooling2d_1[15][0]           
__________________________________________________________________________________________________
batch_normalization_210 (BatchN (None, 1, 1, 4085)   16340       concatenate_292[0][0]            
__________________________________________________________________________________________________
re_lu_210 (ReLU)                (None, 1, 1, 4085)   0           batch_normalization_210[0][0]    
__________________________________________________________________________________________________
conv2d_212 (Conv2D)             (None, 1, 1, 1024)   37648384    re_lu_210[0][0]                  
__________________________________________________________________________________________________
dropout_210 (Dropout)           (None, 1, 1, 1024)   0           conv2d_212[0][0]                 
__________________________________________________________________________________________________
concatenate_293 (Concatenate)   (None, 1, 1, 5109)   0           dropout_210[0][0]                
                                                                 concatenate_292[0][0]            
__________________________________________________________________________________________________
batch_normalization_211 (BatchN (None, 1, 1, 5109)   20436       concatenate_293[0][0]            
__________________________________________________________________________________________________
re_lu_211 (ReLU)                (None, 1, 1, 5109)   0           batch_normalization_211[0][0]    
__________________________________________________________________________________________________
conv2d_213 (Conv2D)             (None, 1, 1, 1024)   47085568    re_lu_211[0][0]                  
__________________________________________________________________________________________________
dropout_211 (Dropout)           (None, 1, 1, 1024)   0           conv2d_213[0][0]                 
__________________________________________________________________________________________________
concatenate_295 (Concatenate)   (None, 1, 1, 3072)   0           dropout_209[0][0]                
                                                                 dropout_210[0][0]                
                                                                 dropout_211[0][0]                
__________________________________________________________________________________________________
conv2d_transpose_8 (Conv2DTrans (None, 3, 3, 512)    14156288    concatenate_295[0][0]            
__________________________________________________________________________________________________
concatenate_296 (Concatenate)   (None, 3, 3, 3573)   0           concatenate_291[0][0]            
                                                                 conv2d_transpose_8[1][0]         
__________________________________________________________________________________________________
batch_normalization_212 (BatchN (None, 3, 3, 3573)   14292       concatenate_296[0][0]            
__________________________________________________________________________________________________
re_lu_212 (ReLU)                (None, 3, 3, 3573)   0           batch_normalization_212[0][0]    
__________________________________________________________________________________________________
conv2d_214 (Conv2D)             (None, 3, 3, 512)    16464896    re_lu_212[0][0]                  
__________________________________________________________________________________________________
dropout_212 (Dropout)           (None, 3, 3, 512)    0           conv2d_214[0][0]                 
__________________________________________________________________________________________________
concatenate_297 (Concatenate)   (None, 3, 3, 4085)   0           dropout_212[0][0]                
                                                                 concatenate_296[0][0]            
__________________________________________________________________________________________________
batch_normalization_213 (BatchN (None, 3, 3, 4085)   16340       concatenate_297[0][0]            
__________________________________________________________________________________________________
re_lu_213 (ReLU)                (None, 3, 3, 4085)   0           batch_normalization_213[0][0]    
__________________________________________________________________________________________________
conv2d_215 (Conv2D)             (None, 3, 3, 512)    18824192    re_lu_213[0][0]                  
__________________________________________________________________________________________________
dropout_213 (Dropout)           (None, 3, 3, 512)    0           conv2d_215[0][0]                 
__________________________________________________________________________________________________
concatenate_298 (Concatenate)   (None, 3, 3, 4597)   0           dropout_213[0][0]                
                                                                 concatenate_297[0][0]            
__________________________________________________________________________________________________
batch_normalization_214 (BatchN (None, 3, 3, 4597)   18388       concatenate_298[0][0]            
__________________________________________________________________________________________________
re_lu_214 (ReLU)                (None, 3, 3, 4597)   0           batch_normalization_214[0][0]    
__________________________________________________________________________________________________
conv2d_216 (Conv2D)             (None, 3, 3, 512)    21183488    re_lu_214[0][0]                  
__________________________________________________________________________________________________
dropout_214 (Dropout)           (None, 3, 3, 512)    0           conv2d_216[0][0]                 
__________________________________________________________________________________________________
concatenate_300 (Concatenate)   (None, 3, 3, 1536)   0           dropout_212[0][0]                
                                                                 dropout_213[0][0]                
                                                                 dropout_214[0][0]                
__________________________________________________________________________________________________
conv2d_transpose_9 (Conv2DTrans (None, 7, 7, 256)    3539200     concatenate_300[0][0]            
__________________________________________________________________________________________________
concatenate_301 (Concatenate)   (None, 7, 7, 1781)   0           concatenate_286[0][0]            
                                                                 conv2d_transpose_9[1][0]         
__________________________________________________________________________________________________
batch_normalization_215 (BatchN (None, 7, 7, 1781)   7124        concatenate_301[0][0]            
__________________________________________________________________________________________________
re_lu_215 (ReLU)                (None, 7, 7, 1781)   0           batch_normalization_215[0][0]    
__________________________________________________________________________________________________
conv2d_217 (Conv2D)             (None, 7, 7, 256)    4103680     re_lu_215[0][0]                  
__________________________________________________________________________________________________
dropout_215 (Dropout)           (None, 7, 7, 256)    0           conv2d_217[0][0]                 
__________________________________________________________________________________________________
concatenate_302 (Concatenate)   (None, 7, 7, 2037)   0           dropout_215[0][0]                
                                                                 concatenate_301[0][0]            
__________________________________________________________________________________________________
batch_normalization_216 (BatchN (None, 7, 7, 2037)   8148        concatenate_302[0][0]            
__________________________________________________________________________________________________
re_lu_216 (ReLU)                (None, 7, 7, 2037)   0           batch_normalization_216[0][0]    
__________________________________________________________________________________________________
conv2d_218 (Conv2D)             (None, 7, 7, 256)    4693504     re_lu_216[0][0]                  
__________________________________________________________________________________________________
dropout_216 (Dropout)           (None, 7, 7, 256)    0           conv2d_218[0][0]                 
__________________________________________________________________________________________________
concatenate_303 (Concatenate)   (None, 7, 7, 2293)   0           dropout_216[0][0]                
                                                                 concatenate_302[0][0]            
__________________________________________________________________________________________________
batch_normalization_217 (BatchN (None, 7, 7, 2293)   9172        concatenate_303[0][0]            
__________________________________________________________________________________________________
re_lu_217 (ReLU)                (None, 7, 7, 2293)   0           batch_normalization_217[0][0]    
__________________________________________________________________________________________________
conv2d_219 (Conv2D)             (None, 7, 7, 256)    5283328     re_lu_217[0][0]                  
__________________________________________________________________________________________________
dropout_217 (Dropout)           (None, 7, 7, 256)    0           conv2d_219[0][0]                 
__________________________________________________________________________________________________
concatenate_305 (Concatenate)   (None, 7, 7, 768)    0           dropout_215[0][0]                
                                                                 dropout_216[0][0]                
                                                                 dropout_217[0][0]                
__________________________________________________________________________________________________
conv2d_transpose_10 (Conv2DTran (None, 15, 15, 128)  884864      concatenate_305[0][0]            
__________________________________________________________________________________________________
concatenate_306 (Concatenate)   (None, 15, 15, 885)  0           concatenate_281[0][0]            
                                                                 conv2d_transpose_10[1][0]        
__________________________________________________________________________________________________
batch_normalization_218 (BatchN (None, 15, 15, 885)  3540        concatenate_306[0][0]            
__________________________________________________________________________________________________
re_lu_218 (ReLU)                (None, 15, 15, 885)  0           batch_normalization_218[0][0]    
__________________________________________________________________________________________________
conv2d_220 (Conv2D)             (None, 15, 15, 128)  1019648     re_lu_218[0][0]                  
__________________________________________________________________________________________________
dropout_218 (Dropout)           (None, 15, 15, 128)  0           conv2d_220[0][0]                 
__________________________________________________________________________________________________
concatenate_307 (Concatenate)   (None, 15, 15, 1013) 0           dropout_218[0][0]                
                                                                 concatenate_306[0][0]            
__________________________________________________________________________________________________
batch_normalization_219 (BatchN (None, 15, 15, 1013) 4052        concatenate_307[0][0]            
__________________________________________________________________________________________________
re_lu_219 (ReLU)                (None, 15, 15, 1013) 0           batch_normalization_219[0][0]    
__________________________________________________________________________________________________
conv2d_221 (Conv2D)             (None, 15, 15, 128)  1167104     re_lu_219[0][0]                  
__________________________________________________________________________________________________
dropout_219 (Dropout)           (None, 15, 15, 128)  0           conv2d_221[0][0]                 
__________________________________________________________________________________________________
concatenate_308 (Concatenate)   (None, 15, 15, 1141) 0           dropout_219[0][0]                
                                                                 concatenate_307[0][0]            
__________________________________________________________________________________________________
batch_normalization_220 (BatchN (None, 15, 15, 1141) 4564        concatenate_308[0][0]            
__________________________________________________________________________________________________
re_lu_220 (ReLU)                (None, 15, 15, 1141) 0           batch_normalization_220[0][0]    
__________________________________________________________________________________________________
conv2d_222 (Conv2D)             (None, 15, 15, 128)  1314560     re_lu_220[0][0]                  
__________________________________________________________________________________________________
dropout_220 (Dropout)           (None, 15, 15, 128)  0           conv2d_222[0][0]                 
__________________________________________________________________________________________________
concatenate_310 (Concatenate)   (None, 15, 15, 384)  0           dropout_218[0][0]                
                                                                 dropout_219[0][0]                
                                                                 dropout_220[0][0]                
__________________________________________________________________________________________________
conv2d_transpose_11 (Conv2DTran (None, 31, 31, 64)   221248      concatenate_310[0][0]            
__________________________________________________________________________________________________
concatenate_311 (Concatenate)   (None, 31, 31, 437)  0           concatenate_276[0][0]            
                                                                 conv2d_transpose_11[1][0]        
__________________________________________________________________________________________________
batch_normalization_221 (BatchN (None, 31, 31, 437)  1748        concatenate_311[0][0]            
__________________________________________________________________________________________________
re_lu_221 (ReLU)                (None, 31, 31, 437)  0           batch_normalization_221[0][0]    
__________________________________________________________________________________________________
conv2d_223 (Conv2D)             (None, 31, 31, 64)   251776      re_lu_221[0][0]                  
__________________________________________________________________________________________________
dropout_221 (Dropout)           (None, 31, 31, 64)   0           conv2d_223[0][0]                 
__________________________________________________________________________________________________
concatenate_312 (Concatenate)   (None, 31, 31, 501)  0           dropout_221[0][0]                
                                                                 concatenate_311[0][0]            
__________________________________________________________________________________________________
batch_normalization_222 (BatchN (None, 31, 31, 501)  2004        concatenate_312[0][0]            
__________________________________________________________________________________________________
re_lu_222 (ReLU)                (None, 31, 31, 501)  0           batch_normalization_222[0][0]    
__________________________________________________________________________________________________
conv2d_224 (Conv2D)             (None, 31, 31, 64)   288640      re_lu_222[0][0]                  
__________________________________________________________________________________________________
dropout_222 (Dropout)           (None, 31, 31, 64)   0           conv2d_224[0][0]                 
__________________________________________________________________________________________________
concatenate_313 (Concatenate)   (None, 31, 31, 565)  0           dropout_222[0][0]                
                                                                 concatenate_312[0][0]            
__________________________________________________________________________________________________
batch_normalization_223 (BatchN (None, 31, 31, 565)  2260        concatenate_313[0][0]            
__________________________________________________________________________________________________
re_lu_223 (ReLU)                (None, 31, 31, 565)  0           batch_normalization_223[0][0]    
__________________________________________________________________________________________________
conv2d_225 (Conv2D)             (None, 31, 31, 64)   325504      re_lu_223[0][0]                  
__________________________________________________________________________________________________
dropout_223 (Dropout)           (None, 31, 31, 64)   0           conv2d_225[0][0]                 
__________________________________________________________________________________________________
concatenate_315 (Concatenate)   (None, 31, 31, 192)  0           dropout_221[0][0]                
                                                                 dropout_222[0][0]                
                                                                 dropout_223[0][0]                
__________________________________________________________________________________________________
conv2d_transpose_12 (Conv2DTran (None, 63, 63, 32)   55328       concatenate_315[0][0]            
__________________________________________________________________________________________________
tf.image.resize_9 (TFOpLambda)  (None, 62, 62, 32)   0           conv2d_transpose_12[1][0]        
__________________________________________________________________________________________________
concatenate_316 (Concatenate)   (None, 62, 62, 213)  0           concatenate_271[0][0]            
                                                                 tf.image.resize_9[0][0]          
__________________________________________________________________________________________________
batch_normalization_224 (BatchN (None, 62, 62, 213)  852         concatenate_316[0][0]            
__________________________________________________________________________________________________
re_lu_224 (ReLU)                (None, 62, 62, 213)  0           batch_normalization_224[0][0]    
__________________________________________________________________________________________________
conv2d_226 (Conv2D)             (None, 62, 62, 32)   61376       re_lu_224[0][0]                  
__________________________________________________________________________________________________
dropout_224 (Dropout)           (None, 62, 62, 32)   0           conv2d_226[0][0]                 
__________________________________________________________________________________________________
concatenate_317 (Concatenate)   (None, 62, 62, 245)  0           dropout_224[0][0]                
                                                                 concatenate_316[0][0]            
__________________________________________________________________________________________________
batch_normalization_225 (BatchN (None, 62, 62, 245)  980         concatenate_317[0][0]            
__________________________________________________________________________________________________
re_lu_225 (ReLU)                (None, 62, 62, 245)  0           batch_normalization_225[0][0]    
__________________________________________________________________________________________________
conv2d_227 (Conv2D)             (None, 62, 62, 32)   70592       re_lu_225[0][0]                  
__________________________________________________________________________________________________
dropout_225 (Dropout)           (None, 62, 62, 32)   0           conv2d_227[0][0]                 
__________________________________________________________________________________________________
concatenate_318 (Concatenate)   (None, 62, 62, 277)  0           dropout_225[0][0]                
                                                                 concatenate_317[0][0]            
__________________________________________________________________________________________________
batch_normalization_226 (BatchN (None, 62, 62, 277)  1108        concatenate_318[0][0]            
__________________________________________________________________________________________________
re_lu_226 (ReLU)                (None, 62, 62, 277)  0           batch_normalization_226[0][0]    
__________________________________________________________________________________________________
conv2d_228 (Conv2D)             (None, 62, 62, 32)   79808       re_lu_226[0][0]                  
__________________________________________________________________________________________________
dropout_226 (Dropout)           (None, 62, 62, 32)   0           conv2d_228[0][0]                 
__________________________________________________________________________________________________
concatenate_320 (Concatenate)   (None, 62, 62, 96)   0           dropout_224[0][0]                
                                                                 dropout_225[0][0]                
                                                                 dropout_226[0][0]                
__________________________________________________________________________________________________
conv2d_transpose_13 (Conv2DTran (None, 125, 125, 16) 13840       concatenate_320[0][0]            
__________________________________________________________________________________________________
concatenate_321 (Concatenate)   (None, 125, 125, 101 0           concatenate_266[0][0]            
                                                                 conv2d_transpose_13[1][0]        
__________________________________________________________________________________________________
batch_normalization_227 (BatchN (None, 125, 125, 101 404         concatenate_321[0][0]            
__________________________________________________________________________________________________
re_lu_227 (ReLU)                (None, 125, 125, 101 0           batch_normalization_227[0][0]    
__________________________________________________________________________________________________
conv2d_229 (Conv2D)             (None, 125, 125, 16) 14560       re_lu_227[0][0]                  
__________________________________________________________________________________________________
dropout_227 (Dropout)           (None, 125, 125, 16) 0           conv2d_229[0][0]                 
__________________________________________________________________________________________________
concatenate_322 (Concatenate)   (None, 125, 125, 117 0           dropout_227[0][0]                
                                                                 concatenate_321[0][0]            
__________________________________________________________________________________________________
batch_normalization_228 (BatchN (None, 125, 125, 117 468         concatenate_322[0][0]            
__________________________________________________________________________________________________
re_lu_228 (ReLU)                (None, 125, 125, 117 0           batch_normalization_228[0][0]    
__________________________________________________________________________________________________
conv2d_230 (Conv2D)             (None, 125, 125, 16) 16864       re_lu_228[0][0]                  
__________________________________________________________________________________________________
dropout_228 (Dropout)           (None, 125, 125, 16) 0           conv2d_230[0][0]                 
__________________________________________________________________________________________________
concatenate_323 (Concatenate)   (None, 125, 125, 133 0           dropout_228[0][0]                
                                                                 concatenate_322[0][0]            
__________________________________________________________________________________________________
batch_normalization_229 (BatchN (None, 125, 125, 133 532         concatenate_323[0][0]            
__________________________________________________________________________________________________
re_lu_229 (ReLU)                (None, 125, 125, 133 0           batch_normalization_229[0][0]    
__________________________________________________________________________________________________
conv2d_231 (Conv2D)             (None, 125, 125, 16) 19168       re_lu_229[0][0]                  
__________________________________________________________________________________________________
dropout_229 (Dropout)           (None, 125, 125, 16) 0           conv2d_231[0][0]                 
__________________________________________________________________________________________________
concatenate_325 (Concatenate)   (None, 125, 125, 48) 0           dropout_227[0][0]                
                                                                 dropout_228[0][0]                
                                                                 dropout_229[0][0]                
__________________________________________________________________________________________________
conv2d_transpose_14 (Conv2DTran (None, 251, 251, 8)  3464        concatenate_325[0][0]            
__________________________________________________________________________________________________
tf.image.resize_10 (TFOpLambda) (None, 250, 250, 8)  0           conv2d_transpose_14[1][0]        
__________________________________________________________________________________________________
concatenate_326 (Concatenate)   (None, 250, 250, 45) 0           concatenate_261[0][0]            
                                                                 tf.image.resize_10[0][0]         
__________________________________________________________________________________________________
batch_normalization_230 (BatchN (None, 250, 250, 45) 180         concatenate_326[0][0]            
__________________________________________________________________________________________________
re_lu_230 (ReLU)                (None, 250, 250, 45) 0           batch_normalization_230[0][0]    
__________________________________________________________________________________________________
conv2d_232 (Conv2D)             (None, 250, 250, 8)  3248        re_lu_230[0][0]                  
__________________________________________________________________________________________________
dropout_230 (Dropout)           (None, 250, 250, 8)  0           conv2d_232[0][0]                 
__________________________________________________________________________________________________
concatenate_327 (Concatenate)   (None, 250, 250, 53) 0           dropout_230[0][0]                
                                                                 concatenate_326[0][0]            
__________________________________________________________________________________________________
batch_normalization_231 (BatchN (None, 250, 250, 53) 212         concatenate_327[0][0]            
__________________________________________________________________________________________________
re_lu_231 (ReLU)                (None, 250, 250, 53) 0           batch_normalization_231[0][0]    
__________________________________________________________________________________________________
conv2d_233 (Conv2D)             (None, 250, 250, 8)  3824        re_lu_231[0][0]                  
__________________________________________________________________________________________________
dropout_231 (Dropout)           (None, 250, 250, 8)  0           conv2d_233[0][0]                 
__________________________________________________________________________________________________
concatenate_328 (Concatenate)   (None, 250, 250, 61) 0           dropout_231[0][0]                
                                                                 concatenate_327[0][0]            
__________________________________________________________________________________________________
batch_normalization_232 (BatchN (None, 250, 250, 61) 244         concatenate_328[0][0]            
__________________________________________________________________________________________________
re_lu_232 (ReLU)                (None, 250, 250, 61) 0           batch_normalization_232[0][0]    
__________________________________________________________________________________________________
conv2d_234 (Conv2D)             (None, 250, 250, 8)  4400        re_lu_232[0][0]                  
__________________________________________________________________________________________________
dropout_232 (Dropout)           (None, 250, 250, 8)  0           conv2d_234[0][0]                 
__________________________________________________________________________________________________
concatenate_330 (Concatenate)   (None, 250, 250, 24) 0           dropout_230[0][0]                
                                                                 dropout_231[0][0]                
                                                                 dropout_232[0][0]                
__________________________________________________________________________________________________
conv2d_transpose_15 (Conv2DTran (None, 501, 501, 4)  868         concatenate_330[0][0]            
__________________________________________________________________________________________________
tf.image.resize_11 (TFOpLambda) (None, 500, 500, 4)  0           conv2d_transpose_15[1][0]        
__________________________________________________________________________________________________
concatenate_331 (Concatenate)   (None, 500, 500, 17) 0           concatenate_256[0][0]            
                                                                 tf.image.resize_11[0][0]         
__________________________________________________________________________________________________
batch_normalization_233 (BatchN (None, 500, 500, 17) 68          concatenate_331[0][0]            
__________________________________________________________________________________________________
re_lu_233 (ReLU)                (None, 500, 500, 17) 0           batch_normalization_233[0][0]    
__________________________________________________________________________________________________
conv2d_235 (Conv2D)             (None, 500, 500, 4)  616         re_lu_233[0][0]                  
__________________________________________________________________________________________________
dropout_233 (Dropout)           (None, 500, 500, 4)  0           conv2d_235[0][0]                 
__________________________________________________________________________________________________
concatenate_332 (Concatenate)   (None, 500, 500, 21) 0           dropout_233[0][0]                
                                                                 concatenate_331[0][0]            
__________________________________________________________________________________________________
batch_normalization_234 (BatchN (None, 500, 500, 21) 84          concatenate_332[0][0]            
__________________________________________________________________________________________________
re_lu_234 (ReLU)                (None, 500, 500, 21) 0           batch_normalization_234[0][0]    
__________________________________________________________________________________________________
conv2d_236 (Conv2D)             (None, 500, 500, 4)  760         re_lu_234[0][0]                  
__________________________________________________________________________________________________
dropout_234 (Dropout)           (None, 500, 500, 4)  0           conv2d_236[0][0]                 
__________________________________________________________________________________________________
concatenate_333 (Concatenate)   (None, 500, 500, 25) 0           dropout_234[0][0]                
                                                                 concatenate_332[0][0]            
__________________________________________________________________________________________________
batch_normalization_235 (BatchN (None, 500, 500, 25) 100         concatenate_333[0][0]            
__________________________________________________________________________________________________
re_lu_235 (ReLU)                (None, 500, 500, 25) 0           batch_normalization_235[0][0]    
__________________________________________________________________________________________________
conv2d_237 (Conv2D)             (None, 500, 500, 4)  904         re_lu_235[0][0]                  
__________________________________________________________________________________________________
dropout_235 (Dropout)           (None, 500, 500, 4)  0           conv2d_237[0][0]                 
__________________________________________________________________________________________________
concatenate_335 (Concatenate)   (None, 500, 500, 12) 0           dropout_233[0][0]                
                                                                 dropout_234[0][0]                
                                                                 dropout_235[0][0]                
__________________________________________________________________________________________________
conv2d_119 (Conv2D)             (None, 500, 500, 1)  13          concatenate_335[0][0]            
__________________________________________________________________________________________________
tf.math.sigmoid_3 (TFOpLambda)  (None, 500, 500, 1)  0           conv2d_119[1][0]                 
==================================================================================================
Total params: 257,137,981
Trainable params: 257,029,023
Non-trainable params: 108,958
__________________________________________________________________________________________________

